…
            "W0722 11:32:52.369779 139950000236416 deprecation_wrapper.py:119] From /usr/local/lib/python3.6/dist-packages/keras/backend/tensorflow_backend.py:3295: The name tf.log is deprecated. Please use tf.math.log instead.\n",
            "\n"
          ],
          "name": "stderr"
        },
        {
          "output_type": "stream",
          "text": [
            "_________________________________________________________________\n",
            "Layer (type)                 Output Shape              Param #   \n",
            "=================================================================\n",
            "conv2d_1 (Conv2D)            (None, 32, 32, 32)        896       \n",
            "_________________________________________________________________\n",
            "conv2d_2 (Conv2D)            (None, 30, 30, 32)        9248      \n",
            "_________________________________________________________________\n",
            "max_pooling2d_1 (MaxPooling2 (None, 15, 15, 32)        0         \n",
            "_________________________________________________________________\n",
            "dropout_1 (Dropout)          (None, 15, 15, 32)        0         \n",
            "_________________________________________________________________\n",
            "conv2d_3 (Conv2D)            (None, 15, 15, 64)        18496     \n",
            "_________________________________________________________________\n",
            "conv2d_4 (Conv2D)            (None, 13, 13, 64)        36928     \n",
            "_________________________________________________________________\n",
            "max_pooling2d_2 (MaxPooling2 (None, 6, 6, 64)          0         \n",
            "_________________________________________________________________\n",
            "dropout_2 (Dropout)          (None, 6, 6, 64)          0         \n",
            "_________________________________________________________________\n",
            "conv2d_5 (Conv2D)            (None, 6, 6, 128)         73856     \n",
            "_________________________________________________________________\n",
            "conv2d_6 (Conv2D)            (None, 4, 4, 128)         147584    \n",
            "_________________________________________________________________\n",
            "conv2d_7 (Conv2D)            (None, 2, 2, 128)         147584    \n",
            "_________________________________________________________________\n",
            "max_pooling2d_3 (MaxPooling2 (None, 1, 1, 128)         0         \n",
            "_________________________________________________________________\n",
            "dropout_3 (Dropout)          (None, 1, 1, 128)         0         \n",
            "_________________________________________________________________\n",
            "flatten_1 (Flatten)          (None, 128)               0         \n",
            "_________________________________________________________________\n",
            "dense_1 (Dense)              (None, 512)               66048     \n",
            "_________________________________________________________________\n",
            "dropout_4 (Dropout)          (None, 512)               0         \n",
            "_________________________________________________________________\n",
            "dense_2 (Dense)              (None, 10)                5130      \n",
            "=================================================================\n",
            "Total params: 505,770\n",
            "Trainable params: 505,770\n",
            "Non-trainable params: 0\n",
            "_________________________________________________________________\n"
          ],
          "name": "stdout"
        }
      ]
    },
    {
      "cell_type": "code",
      "metadata": {
…
        "model2.summary()\n",
        "\n",
        "model2.compile(loss='categorical_crossentropy',\n",
        "              optimizer='RMSprop',\n",
        "              metrics=['accuracy'])"
      ],
      "execution_count": 5,
      "outputs": [
        {
          "output_type": "stream",
          "text": [
            "_________________________________________________________________\n",
            "Layer (type)                 Output Shape              Param #   \n",
            "=================================================================\n",
            "conv2d_8 (Conv2D)            (None, 32, 32, 32)        896       \n",
            "_________________________________________________________________\n",
            "conv2d_9 (Conv2D)            (None, 30, 30, 32)        9248      \n",
            "_________________________________________________________________\n",
            "max_pooling2d_4 (MaxPooling2 (None, 15, 15, 32)        0         \n",
            "_________________________________________________________________\n",
            "dropout_5 (Dropout)          (None, 15, 15, 32)        0         \n",
            "_________________________________________________________________\n",
            "conv2d_10 (Conv2D)           (None, 15, 15, 64)        18496     \n",
            "_________________________________________________________________\n",
            "conv2d_11 (Conv2D)           (None, 13, 13, 64)        36928     \n",
            "_________________________________________________________________\n",
            "max_pooling2d_5 (MaxPooling2 (None, 6, 6, 64)          0         \n",
            "_________________________________________________________________\n",
            "dropout_6 (Dropout)          (None, 6, 6, 64)          0         \n",
            "_________________________________________________________________\n",
            "conv2d_12 (Conv2D)           (None, 6, 6, 128)         73856     \n",
            "_________________________________________________________________\n",
            "conv2d_13 (Conv2D)           (None, 4, 4, 128)         147584    \n",
            "_________________________________________________________________\n",
            "conv2d_14 (Conv2D)           (None, 2, 2, 128)         147584    \n",
            "_________________________________________________________________\n",
            "max_pooling2d_6 (MaxPooling2 (None, 1, 1, 128)         0         \n",
            "_________________________________________________________________\n",
            "dropout_7 (Dropout)          (None, 1, 1, 128)         0         \n",
            "_________________________________________________________________\n",
            "flatten_2 (Flatten)          (None, 128)               0         \n",
            "_________________________________________________________________\n",
            "dense_3 (Dense)              (None, 512)               66048     \n",
            "_________________________________________________________________\n",
            "dropout_8 (Dropout)          (None, 512)               0         \n",
            "_________________________________________________________________\n",
            "dense_4 (Dense)              (None, 32)                16416     \n",
            "_________________________________________________________________\n",
            "dropout_9 (Dropout)          (None, 32)                0         \n",
            "_________________________________________________________________\n",
            "dense_5 (Dense)              (None, 10)                330       \n",
            "=================================================================\n",
            "Total params: 517,386\n",
            "Trainable params: 517,386\n",
            "Non-trainable params: 0\n",
            "_________________________________________________________________\n"
          ],
          "name": "stdout"
        }
      ]
    },
    {
      "cell_type": "code",
      "metadata": {
…
            "W0725 13:08:25.005547 140638557116288 deprecation_wrapper.py:119] From /usr/local/lib/python3.6/dist-packages/keras/backend/tensorflow_backend.py:3295: The name tf.log is deprecated. Please use tf.math.log instead.\n",
            "\n"
          ],
          "name": "stderr"
        },
        {
          "output_type": "stream",
          "text": [
            "_________________________________________________________________\n",
            "Layer (type)                 Output Shape              Param #   \n",
            "=================================================================\n",
            "conv2d_1 (Conv2D)            (None, 32, 32, 32)        896       \n",
            "_________________________________________________________________\n",
            "conv2d_2 (Conv2D)            (None, 30, 30, 32)        9248      \n",
            "_________________________________________________________________\n",
            "max_pooling2d_1 (MaxPooling2 (None, 15, 15, 32)        0         \n",
            "_________________________________________________________________\n",
            "dropout_1 (Dropout)          (None, 15, 15, 32)        0         \n",
            "_________________________________________________________________\n",
            "conv2d_3 (Conv2D)            (None, 15, 15, 64)        18496     \n",
            "_________________________________________________________________\n",
            "conv2d_4 (Conv2D)            (None, 13, 13, 64)        36928     \n",
            "_________________________________________________________________\n",
            "max_pooling2d_2 (MaxPooling2 (None, 6, 6, 64)          0         \n",
            "_________________________________________________________________\n",
            "dropout_2 (Dropout)          (None, 6, 6, 64)          0         \n",
            "_________________________________________________________________\n",
            "flatten_1 (Flatten)          (None, 2304)              0         \n",
            "_________________________________________________________________\n",
            "dense_1 (Dense)              (None, 512)               1180160   \n",
            "_________________________________________________________________\n",
            "dropout_3 (Dropout)          (None, 512)               0         \n",
            "_________________________________________________________________\n",
            "dense_2 (Dense)              (None, 10)                5130      \n",
            "=================================================================\n",
            "Total params: 1,250,858\n",
            "Trainable params: 1,250,858\n",
            "Non-trainable params: 0\n",
            "_________________________________________________________________\n"
          ],
          "name": "stdout"
        }
      ]
    },
    {
      "cell_type": "code",
…
